…
   "cell_type": "markdown",
   "id": "b63ff217-5644-4ee6-99e3-049f25a4f8f3",
   "metadata": {},
   "source": [
    "HW1 : 1.1 Simulate a Function"
   ]
  },
  {
   "cell_type": "code",
   "execution_count": 4,
   "id": "b9141338-731d-4016-ac09-9cda07efe82e",
   "metadata": {
    "tags": []
   },
   "outputs": [
    {
     "data": {
      "image/png": "…",
      "text/plain": [
       "<Figure size 2000x400 with 2 Axes>"
      ]
     },
     "metadata": {},
     "output_type": "display_data"
    },
    {
     "name": "stdout",
     "output_type": "stream",
     "text": [
      "Sequential(\n",
      "  (0): Linear(in_features=1, out_features=5, bias=True)\n",
      "  (1): ReLU()\n",
      "  (2): Linear(in_features=5, out_features=10, bias=True)\n",
      "  (3): ReLU()\n",
      "  (4): Linear(in_features=10, out_features=10, bias=True)\n",
      "  (5): ReLU()\n",
      "  (6): Linear(in_features=10, out_features=10, bias=True)\n",
      "  (7): ReLU()\n",
      "  (8): Linear(in_features=10, out_features=10, bias=True)\n",
      "  (9): ReLU()\n",
      "  (10): Linear(in_features=10, out_features=10, bias=True)\n",
      "  (11): ReLU()\n",
      "  (12): Linear(in_features=10, out_features=5, bias=True)\n",
      "  (13): ReLU()\n",
      "  (14): Linear(in_features=5, out_features=1, bias=True)\n",
      ")\n",
      "Parameters:  571\n",
      "Train Epoch: 100 [0/48000 (0%)]\tLoss: 0.000298\n",
      "Train Epoch: 100 [16000/48000 (33%)]\tLoss: 0.000398\n",
      "Train Epoch: 100 [32000/48000 (67%)]\tLoss: 0.000394\n",
      "Training Done!!!\n",
      " ****************************************************************************************************\n",
      "Sequential(\n",
      "  (0): Linear(in_features=1, out_features=10, bias=True)\n",
      "  (1): ReLU()\n",
      "  (2): Linear(in_features=10, out_features=18, bias=True)\n",
      "  (3): ReLU()\n",
      "  (4): Linear(in_features=18, out_features=15, bias=True)\n",
      "  (5): ReLU()\n",
      "  (6): Linear(in_features=15, out_features=4, bias=True)\n",
      "  (7): ReLU()\n",
      "  (8): Linear(in_features=4, out_features=1, bias=True)\n",
      ")\n",
      "Parameters:  572\n",
      "Train Epoch: 100 [0/48000 (0%)]\tLoss: 0.011615\n",
      "Train Epoch: 100 [16000/48000 (33%)]\tLoss: 0.007603\n",
      "Train Epoch: 100 [32000/48000 (67%)]\tLoss: 0.007517\n",
      "Training Done!!!\n",
      " ****************************************************************************************************\n",
      "Sequential(\n",
      "  (0): Linear(in_features=1, out_features=190, bias=True)\n",
      "  (1): ReLU()\n",
      "  (2): Linear(in_features=190, out_features=1, bias=True)\n",
      ")\n",
      "Parameters:  571\n",
      "Train Epoch: 100 [0/48000 (0%)]\tLoss: 0.000649\n",
      "Train Epoch: 100 [16000/48000 (33%)]\tLoss: 0.000457\n",
      "Train Epoch: 100 [32000/48000 (67%)]\tLoss: 0.000454\n",
      "Training Done!!!\n",
      " ****************************************************************************************************\n"
…
    "    def forward(self,X):\n",
    "        X = X.view(-1,784)\n",
    "        X = F.relu(self.linear1(X))\n",
    "        X = self.linear2(X)\n",
    "        return F.log_softmax(X, dim=1), X\n",
    "    \n",
    "cnn_models = [CNN0(), CNN1(), CNN2(), CNN3()]\n",
    "dnn_models = [DNN0(), DNN1(), DNN2()]"
   ]
  },
  {
   "cell_type": "code",
   "execution_count": 13,
   "id": "e7326b95-9486-4d81-9432-c91241b7aee9",
   "metadata": {
    "tags": []
   },
   "outputs": [
    {
     "name": "stdout",
     "output_type": "stream",
     "text": [
      "CNN0(\n",
      "  (conv1): Sequential(\n",
      "    (0): Conv2d(1, 16, kernel_size=(5, 5), stride=(1, 1), padding=(2, 2))\n",
      "    (1): ReLU()\n",
      "    (2): MaxPool2d(kernel_size=2, stride=2, padding=0, dilation=1, ceil_mode=False)\n",
      "  )\n",
      "  (conv2): Sequential(\n",
      "    (0): Conv2d(16, 32, kernel_size=(5, 5), stride=(1, 1), padding=(2, 2))\n",
      "    (1): ReLU()\n",
      "    (2): MaxPool2d(kernel_size=2, stride=2, padding=0, dilation=1, ceil_mode=False)\n",
      "  )\n",
      "  (conv3): Sequential(\n",
      "    (0): Conv2d(32, 64, kernel_size=(5, 5), stride=(1, 1), padding=(2, 2))\n",
      "    (1): ReLU()\n",
      "    (2): MaxPool2d(kernel_size=2, stride=2, padding=0, dilation=1, ceil_mode=False)\n",
      "  )\n",
      "  (conv4): Sequential(\n",
      "    (0): Conv2d(64, 128, kernel_size=(5, 5), stride=(1, 1), padding=(2, 2))\n",
      "    (1): ReLU()\n",
      "    (2): MaxPool2d(kernel_size=2, stride=2, padding=0, dilation=1, ceil_mode=False)\n",
      "  )\n",
      "  (out): Linear(in_features=128, out_features=10, bias=True)\n",
      ")\n",
      "Epoch done[1/30], Step [200/600], Loss: 0.3410, and Accuracy: 64.495%\n",
      "Epoch done[1/30], Step [400/600], Loss: 0.0528, and Accuracy: 78.547%\n",
      "Epoch done[1/30], Step [600/600], Loss: 0.1206, and Accuracy: 83.742%\n",
      "Epoch done[3/30], Step [200/600], Loss: 0.0777, and Accuracy: 95.865%\n",
      "Epoch done[3/30], Step [400/600], Loss: 0.0500, and Accuracy: 95.868%\n",
…
      "Epoch done[27/30], Step [200/600], Loss: 0.0000, and Accuracy: 99.760%\n",
      "Epoch done[27/30], Step [400/600], Loss: 0.0000, and Accuracy: 99.760%\n",
      "Epoch done[27/30], Step [600/600], Loss: 0.0001, and Accuracy: 99.758%\n",
      "Epoch done[29/30], Step [200/600], Loss: 0.0000, and Accuracy: 99.680%\n",
      "Epoch done[29/30], Step [400/600], Loss: 0.0009, and Accuracy: 99.690%\n",
      "Epoch done[29/30], Step [600/600], Loss: 0.0041, and Accuracy: 99.687%\n",
      "Training completed!!!\n",
      " ****************************************************************************************************\n",
      "CNN3(\n",
      "  (conv1): Conv2d(1, 32, kernel_size=(5, 5), stride=(1, 1))\n",
      "  (conv2): Conv2d(32, 32, kernel_size=(5, 5), stride=(1, 1))\n",
      "  (conv3): Conv2d(32, 64, kernel_size=(5, 5), stride=(1, 1))\n",
      "  (fc1): Linear(in_features=576, out_features=256, bias=True)\n",
      "  (fc2): Linear(in_features=256, out_features=10, bias=True)\n",
      ")\n",
      "Epoch done[1/30], Step [200/600], Loss: 2.3264, and Accuracy: 10.780%\n",
      "Epoch done[1/30], Step [400/600], Loss: 2.3014, and Accuracy: 10.832%\n",
      "Epoch done[1/30], Step [600/600], Loss: 2.3056, and Accuracy: 11.053%\n",
      "Epoch done[3/30], Step [200/600], Loss: 2.2983, and Accuracy: 10.970%\n",
      "Epoch done[3/30], Step [400/600], Loss: 2.2903, and Accuracy: 10.870%\n",
…
